Intel MKL WARNING: Support of Intel(R) Streaming SIMD Extensions 4.2 (Intel(R) SSE4.2) enabled only processors has been deprecated. Intel oneAPI Math Kernel Library 2025.0 will require Intel(R) Advanced Vector Extensions (Intel(R) AVX) instructions.
--------Setting Up of Analysis--------

Using: cpu

--------Loading Dataset Outputs--------

Batches in Train Dataset: 10
Batches in Val Dataset: 2
Num Units in Session: 55


--------Setting Up of Models--------

*****Transformer Neural Decoder*****
TransformerNeuralDecoder(
  (readin): Linear(in_features=55, out_features=128, bias=True)
  (readout): Linear(in_features=128, out_features=2, bias=True)
  (transformer_layers): ModuleList(
    (0-2): 3 x ModuleList(
      (0): MultiheadAttention(
        (out_proj): NonDynamicallyQuantizableLinear(in_features=128, out_features=128, bias=True)
      )
      (1): FeedForward(
        (net): Sequential(
          (0): Linear(in_features=128, out_features=1024, bias=True)
          (1): GEGLU()
          (2): Dropout(p=0.2, inplace=False)
          (3): Linear(in_features=512, out_features=128, bias=True)
        )
      )
    )
  )
)

*****Hopfield Only Decoder*****
HopfieldOnlyDecoder(
  (readin): Linear(in_features=55, out_features=128, bias=True)
  (readout): Linear(in_features=128, out_features=2, bias=True)
  (layers): ModuleList(
    (0-2): 3 x ModuleList(
      (0): Hopfield(
        (association_core): HopfieldCore(
          (out_proj): Linear(in_features=512, out_features=128, bias=True)
        )
        (norm_stored_pattern): LayerNorm((128,), eps=1e-05, elementwise_affine=True)
        (norm_state_pattern): LayerNorm((128,), eps=1e-05, elementwise_affine=True)
        (norm_pattern_projection): LayerNorm((128,), eps=1e-05, elementwise_affine=True)
      )
      (1): FeedForward(
        (net): Sequential(
          (0): Linear(in_features=128, out_features=1024, bias=True)
          (1): GEGLU()
          (2): Dropout(p=0.2, inplace=False)
          (3): Linear(in_features=512, out_features=128, bias=True)
        )
      )
    )
  )
)

*****Transformer + Hopfield Decoder*****
TransformerHopfieldDecoder(
  (readin): Linear(in_features=55, out_features=128, bias=True)
  (readout): Linear(in_features=128, out_features=2, bias=True)
  (transformer_layers): ModuleList(
    (0-2): 3 x ModuleList(
      (0): MultiheadAttention(
        (out_proj): NonDynamicallyQuantizableLinear(in_features=128, out_features=128, bias=True)
      )
      (1): FeedForward(
        (net): Sequential(
          (0): Linear(in_features=128, out_features=1024, bias=True)
          (1): GEGLU()
          (2): Dropout(p=0.2, inplace=False)
          (3): Linear(in_features=512, out_features=128, bias=True)
        )
      )
    )
  )
  (hopfield): Hopfield(
    (association_core): HopfieldCore(
      (out_proj): Linear(in_features=512, out_features=128, bias=True)
    )
    (norm_stored_pattern): LayerNorm((128,), eps=1e-05, elementwise_affine=True)
    (norm_state_pattern): LayerNorm((128,), eps=1e-05, elementwise_affine=True)
    (norm_pattern_projection): LayerNorm((128,), eps=1e-05, elementwise_affine=True)
  )
)

--------Training Models--------

*****Transformer Neural Decoder*****

Epoch 1/3 | Val R2 = -0.017 | Loss = 17.062
Epoch 2/3 | Val R2 = -0.005 | Loss = 17.573
Epoch 3/3 | Val R2 = -0.005 | Loss = 19.142
Done! Final validation R2 = 0.001

*****Hopfield Only Decoder*****

Epoch 1/3 | Val R2 = -0.012 | Loss = 18.408
Epoch 2/3 | Val R2 = -0.012 | Loss = 15.563
…
